…
2025-12-19 20:31:43,645 - urllib3.connectionpool - DEBUG - https://huggingface.co:443 "HEAD /Qwen/Qwen2.5-0.5B-Instruct/resolve/main/generation_config.json HTTP/1.1" 307 0
2025-12-19 20:31:43,650 - urllib3.connectionpool - DEBUG - https://huggingface.co:443 "HEAD /api/resolve-cache/models/Qwen/Qwen2.5-0.5B-Instruct/7ae557604adf67be50417f59c2c2f167def9a775/generation_config.json HTTP/1.1" 200 0
2025-12-19 20:31:43,674 - urllib3.connectionpool - DEBUG - https://huggingface.co:443 "HEAD /Qwen/Qwen2.5-0.5B-Instruct/resolve/main/custom_generate/generate.py HTTP/1.1" 404 0
2025-12-19 20:31:51,209 - script.playground.inference_example - INFO - Loading projectors...[C2CProjector(
  (key_in): Linear(in_features=1152, out_features=1024, bias=True)
  (value_in): Linear(in_features=1152, out_features=1024, bias=True)
  (key_mlp1): RegularMLP(
    (blocks): ModuleList(
      (0): StandardFFNLayer(
        (norm): RMSNorm((1024,), eps=1e-06, elementwise_affine=True)
        (w1): Linear(in_features=1024, out_features=1024, bias=False)
        (w2): Linear(in_features=1024, out_features=1024, bias=False)
        (drop): Dropout(p=0.1, inplace=False)
        (act): GELU(approximate='none')
      )
    )
  )
  (value_mlp1): RegularMLP(
    (blocks): ModuleList(
      (0): StandardFFNLayer(
        (norm): RMSNorm((1024,), eps=1e-06, elementwise_affine=True)
        (w1): Linear(in_features=1024, out_features=1024, bias=False)
        (w2): Linear(in_features=1024, out_features=1024, bias=False)
        (drop): Dropout(p=0.1, inplace=False)
        (act): GELU(approximate='none')
      )
    )
  )
  (key_scalar_mlp2): RegularMLP(
    (blocks): ModuleList(
      (0): StandardFFNLayer(
        (norm): RMSNorm((1024,), eps=1e-06, elementwise_affine=True)
        (w1): Linear(in_features=1024, out_features=1024, bias=False)
        (w2): Linear(in_features=1024, out_features=1024, bias=False)
        (drop): Dropout(p=0.1, inplace=False)
        (act): GELU(approximate='none')
      )
    )
  )
  (value_scalar_mlp2): RegularMLP(
    (blocks): ModuleList(
      (0): StandardFFNLayer(
        (norm): RMSNorm((1024,), eps=1e-06, elementwise_affine=True)
        (w1): Linear(in_features=1024, out_features=1024, bias=False)
        (w2): Linear(in_features=1024, out_features=1024, bias=False)
        (drop): Dropout(p=0.1, inplace=False)
        (act): GELU(approximate='none')
      )
    )
  )
  (key_scalar_head): Linear(in_features=1024, out_features=8, bias=True)
  (value_scalar_head): Linear(in_features=1024, out_features=8, bias=True)
  (key_proj_mlp2): RegularMLP(
    (blocks): ModuleList(
      (0): StandardFFNLayer(
        (norm): RMSNorm((1024,), eps=1e-06, elementwise_affine=True)
        (w1): Linear(in_features=1024, out_features=1024, bias=False)
        (w2): Linear(in_features=1024, out_features=1024, bias=False)
        (drop): Dropout(p=0.1, inplace=False)
        (act): GELU(approximate='none')
      )
    )
  )
  (value_proj_mlp2): RegularMLP(
    (blocks): ModuleList(
      (0): StandardFFNLayer(
        (norm): RMSNorm((1024,), eps=1e-06, elementwise_affine=True)
        (w1): Linear(in_features=1024, out_features=1024, bias=False)
        (w2): Linear(in_features=1024, out_features=1024, bias=False)
        (drop): Dropout(p=0.1, inplace=False)
        (act): GELU(approximate='none')
      )
    )
  )
  (key_proj_out): Linear(in_features=1024, out_features=1024, bias=True)
  (value_proj_out): Linear(in_features=1024, out_features=1024, bias=True)
), C2CProjector(
  (key_in): Linear(in_features=1152, out_features=1024, bias=True)
  (value_in): Linear(in_features=1152, out_features=1024, bias=True)
  (key_mlp1): RegularMLP(
    (blocks): ModuleList(
      (0): StandardFFNLayer(
        (norm): RMSNorm((1024,), eps=1e-06, elementwise_affine=True)
        (w1): Linear(in_features=1024, out_features=1024, bias=False)
        (w2): Linear(in_features=1024, out_features=1024, bias=False)
        (drop): Dropout(p=0.1, inplace=False)
        (act): GELU(approximate='none')
      )
    )
  )
  (value_mlp1): RegularMLP(
    (blocks): ModuleList(
      (0): StandardFFNLayer(
        (norm): RMSNorm((1024,), eps=1e-06, elementwise_affine=True)
        (w1): Linear(in_features=1024, out_features=1024, bias=False)
        (w2): Linear(in_features=1024, out_features=1024, bias=False)
        (drop): Dropout(p=0.1, inplace=False)
        (act): GELU(approximate='none')
      )
    )
  )
  (key_scalar_mlp2): RegularMLP(
    (blocks): ModuleList(
      (0): StandardFFNLayer(
        (norm): RMSNorm((1024,), eps=1e-06, elementwise_affine=True)
        (w1): Linear(in_features=1024, out_features=1024, bias=False)
        (w2): Linear(in_features=1024, out_features=1024, bias=False)
        (drop): Dropout(p=0.1, inplace=False)
        (act): GELU(approximate='none')
      )
    )
  )
  (value_scalar_mlp2): RegularMLP(
    (blocks): ModuleList(
      (0): StandardFFNLayer(
        (norm): RMSNorm((1024,), eps=1e-06, elementwise_affine=True)
        (w1): Linear(in_features=1024, out_features=1024, bias=False)
        (w2): Linear(in_features=1024, out_features=1024, bias=False)
        (drop): Dropout(p=0.1, inplace=False)
        (act): GELU(approximate='none')
      )
    )
  )
  (key_scalar_head): Linear(in_features=1024, out_features=8, bias=True)
  (value_scalar_head): Linear(in_features=1024, out_features=8, bias=True)
  (key_proj_mlp2): RegularMLP(
    (blocks): ModuleList(
      (0): StandardFFNLayer(
        (norm): RMSNorm((1024,), eps=1e-06, elementwise_affine=True)
        (w1): Linear(in_features=1024, out_features=1024, bias=False)
        (w2): Linear(in_features=1024, out_features=1024, bias=False)
        (drop): Dropout(p=0.1, inplace=False)
        (act): GELU(approximate='none')
      )
    )
  )
  (value_proj_mlp2): RegularMLP(
    (blocks): ModuleList(
      (0): StandardFFNLayer(
        (norm): RMSNorm((1024,), eps=1e-06, elementwise_affine=True)
        (w1): Linear(in_features=1024, out_features=1024, bias=False)
        (w2): Linear(in_features=1024, out_features=1024, bias=False)
        (drop): Dropout(p=0.1, inplace=False)
        (act): GELU(approximate='none')
      )
    )
  )
  (key_proj_out): Linear(in_features=1024, out_features=1024, bias=True)
  (value_proj_out): Linear(in_features=1024, out_features=1024, bias=True)
), C2CProjector(
  (key_in): Linear(in_features=1152, out_features=1024, bias=True)
  (value_in): Linear(in_features=1152, out_features=1024, bias=True)
  (key_mlp1): RegularMLP(
    (blocks): ModuleList(
      (0): StandardFFNLayer(
        (norm): RMSNorm((1024,), eps=1e-06, elementwise_affine=True)
        (w1): Linear(in_features=1024, out_features=1024, bias=False)
        (w2): Linear(in_features=1024, out_features=1024, bias=False)
        (drop): Dropout(p=0.1, inplace=False)
        (act): GELU(approximate='none')
      )
    )
  )
  (value_mlp1): RegularMLP(
    (blocks): ModuleList(
      (0): StandardFFNLayer(
        (norm): RMSNorm((1024,), eps=1e-06, elementwise_affine=True)
        (w1): Linear(in_features=1024, out_features=1024, bias=False)
        (w2): Linear(in_features=1024, out_features=1024, bias=False)
        (drop): Dropout(p=0.1, inplace=False)
        (act): GELU(approximate='none')
      )
    )
  )
  (key_scalar_mlp2): RegularMLP(
    (blocks): ModuleList(
      (0): StandardFFNLayer(
        (norm): RMSNorm((1024,), eps=1e-06, elementwise_affine=True)
        (w1): Linear(in_features=1024, out_features=1024, bias=False)
        (w2): Linear(in_features=1024, out_features=1024, bias=False)
        (drop): Dropout(p=0.1, inplace=False)
        (act): GELU(approximate='none')
      )
    )
  )
  (value_scalar_mlp2): RegularMLP(
    (blocks): ModuleList(
      (0): StandardFFNLayer(
        (norm): RMSNorm((1024,), eps=1e-06, elementwise_affine=True)
        (w1): Linear(in_features=1024, out_features=1024, bias=False)
        (w2): Linear(in_features=1024, out_features=1024, bias=False)
        (drop): Dropout(p=0.1, inplace=False)
        (act): GELU(approximate='none')
      )
    )
  )
  (key_scalar_head): Linear(in_features=1024, out_features=8, bias=True)
  (value_scalar_head): Linear(in_features=1024, out_features=8, bias=True)
  (key_proj_mlp2): RegularMLP(
    (blocks): ModuleList(
      (0): StandardFFNLayer(
        (norm): RMSNorm((1024,), eps=1e-06, elementwise_affine=True)
        (w1): Linear(in_features=1024, out_features=1024, bias=False)
        (w2): Linear(in_features=1024, out_features=1024, bias=False)
        (drop): Dropout(p=0.1, inplace=False)
        (act): GELU(approximate='none')
      )
    )
  )
  (value_proj_mlp2): RegularMLP(
    (blocks): ModuleList(
      (0): StandardFFNLayer(
        (norm): RMSNorm((1024,), eps=1e-06, elementwise_affine=True)
        (w1): Linear(in_features=1024, out_features=1024, bias=False)
        (w2): Linear(in_features=1024, out_features=1024, bias=False)
        (drop): Dropout(p=0.1, inplace=False)
        (act): GELU(approximate='none')
      )
    )
  )
  (key_proj_out): Linear(in_features=1024, out_features=1024, bias=True)
  (value_proj_out): Linear(in_features=1024, out_features=1024, bias=True)
), C2CProjector(
  (key_in): Linear(in_features=1152, out_features=1024, bias=True)
  (value_in): Linear(in_features=1152, out_features=1024, bias=True)
  (key_mlp1): RegularMLP(
    (blocks): ModuleList(
      (0): StandardFFNLayer(
        (norm): RMSNorm((1024,), eps=1e-06, elementwise_affine=True)
        (w1): Linear(in_features=1024, out_features=1024, bias=False)
        (w2): Linear(in_features=1024, out_features=1024, bias=False)
        (drop): Dropout(p=0.1, inplace=False)
        (act): GELU(approximate='none')
      )
    )
  )
  (value_mlp1): RegularMLP(
    (blocks): ModuleList(
      (0): StandardFFNLayer(
        (norm): RMSNorm((1024,), eps=1e-06, elementwise_affine=True)
        (w1): Linear(in_features=1024, out_features=1024, bias=False)
        (w2): Linear(in_features=1024, out_features=1024, bias=False)
        (drop): Dropout(p=0.1, inplace=False)
        (act): GELU(approximate='none')
      )
    )
  )
  (key_scalar_mlp2): RegularMLP(
    (blocks): ModuleList(
      (0): StandardFFNLayer(
        (norm): RMSNorm((1024,), eps=1e-06, elementwise_affine=True)
        (w1): Linear(in_features=1024, out_features=1024, bias=False)
        (w2): Linear(in_features=1024, out_features=1024, bias=False)
        (drop): Dropout(p=0.1, inplace=False)
        (act): GELU(approximate='none')
      )
    )
  )
  (value_scalar_mlp2): RegularMLP(
    (blocks): ModuleList(
      (0): StandardFFNLayer(
        (norm): RMSNorm((1024,), eps=1e-06, elementwise_affine=True)
        (w1): Linear(in_features=1024, out_features=1024, bias=False)
        (w2): Linear(in_features=1024, out_features=1024, bias=False)
        (drop): Dropout(p=0.1, inplace=False)
        (act): GELU(approximate='none')
      )
    )
  )
  (key_scalar_head): Linear(in_features=1024, out_features=8, bias=True)
  (value_scalar_head): Linear(in_features=1024, out_features=8, bias=True)
  (key_proj_mlp2): RegularMLP(
    (blocks): ModuleList(
      (0): StandardFFNLayer(
        (norm): RMSNorm((1024,), eps=1e-06, elementwise_affine=True)
        (w1): Linear(in_features=1024, out_features=1024, bias=False)
        (w2): Linear(in_features=1024, out_features=1024, bias=False)
        (drop): Dropout(p=0.1, inplace=False)
        (act): GELU(approximate='none')
      )
    )
  )
  (value_proj_mlp2): RegularMLP(
    (blocks): ModuleList(
      (0): StandardFFNLayer(
        (norm): RMSNorm((1024,), eps=1e-06, elementwise_affine=True)
        (w1): Linear(in_features=1024, out_features=1024, bias=False)
        (w2): Linear(in_features=1024, out_features=1024, bias=False)
        (drop): Dropout(p=0.1, inplace=False)
        (act): GELU(approximate='none')
      )
    )
  )
  (key_proj_out): Linear(in_features=1024, out_features=1024, bias=True)
  (value_proj_out): Linear(in_features=1024, out_features=1024, bias=True)
), C2CProjector(
  (key_in): Linear(in_features=1152, out_features=1024, bias=True)
  (value_in): Linear(in_features=1152, out_features=1024, bias=True)
  (key_mlp1): RegularMLP(
    (blocks): ModuleList(
      (0): StandardFFNLayer(
        (norm): RMSNorm((1024,), eps=1e-06, elementwise_affine=True)
        (w1): Linear(in_features=1024, out_features=1024, bias=False)
        (w2): Linear(in_features=1024, out_features=1024, bias=False)
        (drop): Dropout(p=0.1, inplace=False)
        (act): GELU(approximate='none')
      )
    )
  )
  (value_mlp1): RegularMLP(
    (blocks): ModuleList(
      (0): StandardFFNLayer(
        (norm): RMSNorm((1024,), eps=1e-06, elementwise_affine=True)
        (w1): Linear(in_features=1024, out_features=1024, bias=False)
        (w2): Linear(in_features=1024, out_features=1024, bias=False)
        (drop): Dropout(p=0.1, inplace=False)
        (act): GELU(approximate='none')
      )
    )
  )
  (key_scalar_mlp2): RegularMLP(
    (blocks): ModuleList(
      (0): StandardFFNLayer(
        (norm): RMSNorm((1024,), eps=1e-06, elementwise_affine=True)
        (w1): Linear(in_features=1024, out_features=1024, bias=False)
        (w2): Linear(in_features=1024, out_features=1024, bias=False)
        (drop): Dropout(p=0.1, inplace=False)
        (act): GELU(approximate='none')
      )
    )
  )
  (value_scalar_mlp2): RegularMLP(
    (blocks): ModuleList(
      (0): StandardFFNLayer(
        (norm): RMSNorm((1024,), eps=1e-06, elementwise_affine=True)
        (w1): Linear(in_features=1024, out_features=1024, bias=False)
        (w2): Linear(in_features=1024, out_features=1024, bias=False)
        (drop): Dropout(p=0.1, inplace=False)
        (act): GELU(approximate='none')
      )
    )
  )
  (key_scalar_head): Linear(in_features=1024, out_features=8, bias=True)
  (value_scalar_head): Linear(in_features=1024, out_features=8, bias=True)
  (key_proj_mlp2): RegularMLP(
    (blocks): ModuleList(
      (0): StandardFFNLayer(
        (norm): RMSNorm((1024,), eps=1e-06, elementwise_affine=True)
        (w1): Linear(in_features=1024, out_features=1024, bias=False)
        (w2): Linear(in_features=1024, out_features=1024, bias=False)
        (drop): Dropout(p=0.1, inplace=False)
        (act): GELU(approximate='none')
      )
    )
  )
  (value_proj_mlp2): RegularMLP(
    (blocks): ModuleList(
      (0): StandardFFNLayer(
        (norm): RMSNorm((1024,), eps=1e-06, elementwise_affine=True)
        (w1): Linear(in_features=1024, out_features=1024, bias=False)
        (w2): Linear(in_features=1024, out_features=1024, bias=False)
        (drop): Dropout(p=0.1, inplace=False)
        (act): GELU(approximate='none')
      )
    )
  )
  (key_proj_out): Linear(in_features=1024, out_features=1024, bias=True)
  (value_proj_out): Linear(in_features=1024, out_features=1024, bias=True)
), C2CProjector(
  (key_in): Linear(in_features=1152, out_features=1024, bias=True)
  (value_in): Linear(in_features=1152, out_features=1024, bias=True)
  (key_mlp1): RegularMLP(
    (blocks): ModuleList(
      (0): StandardFFNLayer(
        (norm): RMSNorm((1024,), eps=1e-06, elementwise_affine=True)
        (w1): Linear(in_features=1024, out_features=1024, bias=False)
        (w2): Linear(in_features=1024, out_features=1024, bias=False)
        (drop): Dropout(p=0.1, inplace=False)
        (act): GELU(approximate='none')
      )
    )
  )
  (value_mlp1): RegularMLP(
    (blocks): ModuleList(
      (0): StandardFFNLayer(
        (norm): RMSNorm((1024,), eps=1e-06, elementwise_affine=True)
        (w1): Linear(in_features=1024, out_features=1024, bias=False)
        (w2): Linear(in_features=1024, out_features=1024, bias=False)
        (drop): Dropout(p=0.1, inplace=False)
        (act): GELU(approximate='none')
      )
    )
  )
  (key_scalar_mlp2): RegularMLP(
    (blocks): ModuleList(
      (0): StandardFFNLayer(
        (norm): RMSNorm((1024,), eps=1e-06, elementwise_affine=True)
        (w1): Linear(in_features=1024, out_features=1024, bias=False)
        (w2): Linear(in_features=1024, out_features=1024, bias=False)
        (drop): Dropout(p=0.1, inplace=False)
        (act): GELU(approximate='none')
      )
    )
  )
  (value_scalar_mlp2): RegularMLP(
    (blocks): ModuleList(
      (0): StandardFFNLayer(
        (norm): RMSNorm((1024,), eps=1e-06, elementwise_affine=True)
        (w1): Linear(in_features=1024, out_features=1024, bias=False)
        (w2): Linear(in_features=1024, out_features=1024, bias=False)
        (drop): Dropout(p=0.1, inplace=False)
        (act): GELU(approximate='none')
      )
    )
  )
  (key_scalar_head): Linear(in_features=1024, out_features=8, bias=True)
  (value_scalar_head): Linear(in_features=1024, out_features=8, bias=True)
  (key_proj_mlp2): RegularMLP(
    (blocks): ModuleList(
      (0): StandardFFNLayer(
        (norm): RMSNorm((1024,), eps=1e-06, elementwise_affine=True)
        (w1): Linear(in_features=1024, out_features=1024, bias=False)
        (w2): Linear(in_features=1024, out_features=1024, bias=False)
        (drop): Dropout(p=0.1, inplace=False)
        (act): GELU(approximate='none')
      )
    )
  )
  (value_proj_mlp2): RegularMLP(
    (blocks): ModuleList(
      (0): StandardFFNLayer(
        (norm): RMSNorm((1024,), eps=1e-06, elementwise_affine=True)
        (w1): Linear(in_features=1024, out_features=1024, bias=False)
        (w2): Linear(in_features=1024, out_features=1024, bias=False)
        (drop): Dropout(p=0.1, inplace=False)
        (act): GELU(approximate='none')
      )
    )
  )
  (key_proj_out): Linear(in_features=1024, out_features=1024, bias=True)
  (value_proj_out): Linear(in_features=1024, out_features=1024, bias=True)
), C2CProjector(
  (key_in): Linear(in_features=1152, out_features=1024, bias=True)
  (value_in): Linear(in_features=1152, out_features=1024, bias=True)
  (key_mlp1): RegularMLP(
    (blocks): ModuleList(
      (0): StandardFFNLayer(
        (norm): RMSNorm((1024,), eps=1e-06, elementwise_affine=True)
        (w1): Linear(in_features=1024, out_features=1024, bias=False)
        (w2): Linear(in_features=1024, out_features=1024, bias=False)
        (drop): Dropout(p=0.1, inplace=False)
        (act): GELU(approximate='none')
      )
    )
  )
  (value_mlp1): RegularMLP(
    (blocks): ModuleList(
      (0): StandardFFNLayer(
        (norm): RMSNorm((1024,), eps=1e-06, elementwise_affine=True)
        (w1): Linear(in_features=1024, out_features=1024, bias=False)
        (w2): Linear(in_features=1024, out_features=1024, bias=False)
        (drop): Dropout(p=0.1, inplace=False)
        (act): GELU(approximate='none')
      )
    )
  )
  (key_scalar_mlp2): RegularMLP(
    (blocks): ModuleList(
      (0): StandardFFNLayer(
        (norm): RMSNorm((1024,), eps=1e-06, elementwise_affine=True)
        (w1): Linear(in_features=1024, out_features=1024, bias=False)
        (w2): Linear(in_features=1024, out_features=1024, bias=False)
        (drop): Dropout(p=0.1, inplace=False)
        (act): GELU(approximate='none')
      )
    )
  )
  (value_scalar_mlp2): RegularMLP(
    (blocks): ModuleList(
      (0): StandardFFNLayer(
        (norm): RMSNorm((1024,), eps=1e-06, elementwise_affine=True)
        (w1): Linear(in_features=1024, out_features=1024, bias=False)
        (w2): Linear(in_features=1024, out_features=1024, bias=False)
        (drop): Dropout(p=0.1, inplace=False)
        (act): GELU(approximate='none')
      )
    )
  )
  (key_scalar_head): Linear(in_features=1024, out_features=8, bias=True)
  (value_scalar_head): Linear(in_features=1024, out_features=8, bias=True)
  (key_proj_mlp2): RegularMLP(
    (blocks): ModuleList(
      (0): StandardFFNLayer(
        (norm): RMSNorm((1024,), eps=1e-06, elementwise_affine=True)
        (w1): Linear(in_features=1024, out_features=1024, bias=False)
        (w2): Linear(in_features=1024, out_features=1024, bias=False)
        (drop): Dropout(p=0.1, inplace=False)
        (act): GELU(approximate='none')
      )
    )
  )
  (value_proj_mlp2): RegularMLP(
    (blocks): ModuleList(
      (0): StandardFFNLayer(
        (norm): RMSNorm((1024,), eps=1e-06, elementwise_affine=True)
        (w1): Linear(in_features=1024, out_features=1024, bias=False)
        (w2): Linear(in_features=1024, out_features=1024, bias=False)
        (drop): Dropout(p=0.1, inplace=False)
        (act): GELU(approximate='none')
      )
    )
  )
  (key_proj_out): Linear(in_features=1024, out_features=1024, bias=True)
  (value_proj_out): Linear(in_features=1024, out_features=1024, bias=True)
), C2CProjector(
  (key_in): Linear(in_features=1152, out_features=1024, bias=True)
  (value_in): Linear(in_features=1152, out_features=1024, bias=True)
  (key_mlp1): RegularMLP(
    (blocks): ModuleList(
      (0): StandardFFNLayer(
        (norm): RMSNorm((1024,), eps=1e-06, elementwise_affine=True)
        (w1): Linear(in_features=1024, out_features=1024, bias=False)
        (w2): Linear(in_features=1024, out_features=1024, bias=False)
        (drop): Dropout(p=0.1, inplace=False)
        (act): GELU(approximate='none')
      )
    )
  )
  (value_mlp1): RegularMLP(
    (blocks): ModuleList(
      (0): StandardFFNLayer(
        (norm): RMSNorm((1024,), eps=1e-06, elementwise_affine=True)
        (w1): Linear(in_features=1024, out_features=1024, bias=False)
        (w2): Linear(in_features=1024, out_features=1024, bias=False)
        (drop): Dropout(p=0.1, inplace=False)
        (act): GELU(approximate='none')
      )
    )
  )
  (key_scalar_mlp2): RegularMLP(
    (blocks): ModuleList(
      (0): StandardFFNLayer(
        (norm): RMSNorm((1024,), eps=1e-06, elementwise_affine=True)
        (w1): Linear(in_features=1024, out_features=1024, bias=False)
        (w2): Linear(in_features=1024, out_features=1024, bias=False)
        (drop): Dropout(p=0.1, inplace=False)
        (act): GELU(approximate='none')
      )
    )
  )
  (value_scalar_mlp2): RegularMLP(
    (blocks): ModuleList(
      (0): StandardFFNLayer(
        (norm): RMSNorm((1024,), eps=1e-06, elementwise_affine=True)
        (w1): Linear(in_features=1024, out_features=1024, bias=False)
        (w2): Linear(in_features=1024, out_features=1024, bias=False)
        (drop): Dropout(p=0.1, inplace=False)
        (act): GELU(approximate='none')
      )
    )
  )
  (key_scalar_head): Linear(in_features=1024, out_features=8, bias=True)
  (value_scalar_head): Linear(in_features=1024, out_features=8, bias=True)
  (key_proj_mlp2): RegularMLP(
    (blocks): ModuleList(
      (0): StandardFFNLayer(
        (norm): RMSNorm((1024,), eps=1e-06, elementwise_affine=True)
        (w1): Linear(in_features=1024, out_features=1024, bias=False)
        (w2): Linear(in_features=1024, out_features=1024, bias=False)
        (drop): Dropout(p=0.1, inplace=False)
        (act): GELU(approximate='none')
      )
    )
  )
  (value_proj_mlp2): RegularMLP(
    (blocks): ModuleList(
      (0): StandardFFNLayer(
        (norm): RMSNorm((1024,), eps=1e-06, elementwise_affine=True)
        (w1): Linear(in_features=1024, out_features=1024, bias=False)
        (w2): Linear(in_features=1024, out_features=1024, bias=False)
        (drop): Dropout(p=0.1, inplace=False)
        (act): GELU(approximate='none')
      )
    )
  )
  (key_proj_out): Linear(in_features=1024, out_features=1024, bias=True)
  (value_proj_out): Linear(in_features=1024, out_features=1024, bias=True)
), C2CProjector(
  (key_in): Linear(in_features=1152, out_features=1024, bias=True)
  (value_in): Linear(in_features=1152, out_features=1024, bias=True)
  (key_mlp1): RegularMLP(
    (blocks): ModuleList(
      (0): StandardFFNLayer(
        (norm): RMSNorm((1024,), eps=1e-06, elementwise_affine=True)
        (w1): Linear(in_features=1024, out_features=1024, bias=False)
        (w2): Linear(in_features=1024, out_features=1024, bias=False)
        (drop): Dropout(p=0.1, inplace=False)
        (act): GELU(approximate='none')
      )
    )
  )
  (value_mlp1): RegularMLP(
    (blocks): ModuleList(
      (0): StandardFFNLayer(
        (norm): RMSNorm((1024,), eps=1e-06, elementwise_affine=True)
        (w1): Linear(in_features=1024, out_features=1024, bias=False)
        (w2): Linear(in_features=1024, out_features=1024, bias=False)
        (drop): Dropout(p=0.1, inplace=False)
        (act): GELU(approximate='none')
      )
    )
  )
  (key_scalar_mlp2): RegularMLP(
    (blocks): ModuleList(
      (0): StandardFFNLayer(
        (norm): RMSNorm((1024,), eps=1e-06, elementwise_affine=True)
        (w1): Linear(in_features=1024, out_features=1024, bias=False)
        (w2): Linear(in_features=1024, out_features=1024, bias=False)
        (drop): Dropout(p=0.1, inplace=False)
        (act): GELU(approximate='none')
      )
    )
  )
  (value_scalar_mlp2): RegularMLP(
    (blocks): ModuleList(
      (0): StandardFFNLayer(
        (norm): RMSNorm((1024,), eps=1e-06, elementwise_affine=True)
        (w1): Linear(in_features=1024, out_features=1024, bias=False)
        (w2): Linear(in_features=1024, out_features=1024, bias=False)
        (drop): Dropout(p=0.1, inplace=False)
        (act): GELU(approximate='none')
      )
    )
  )
  (key_scalar_head): Linear(in_features=1024, out_features=8, bias=True)
  (value_scalar_head): Linear(in_features=1024, out_features=8, bias=True)
  (key_proj_mlp2): RegularMLP(
    (blocks): ModuleList(
      (0): StandardFFNLayer(
        (norm): RMSNorm((1024,), eps=1e-06, elementwise_affine=True)
        (w1): Linear(in_features=1024, out_features=1024, bias=False)
        (w2): Linear(in_features=1024, out_features=1024, bias=False)
        (drop): Dropout(p=0.1, inplace=False)
        (act): GELU(approximate='none')
      )
    )
  )
  (value_proj_mlp2): RegularMLP(
    (blocks): ModuleList(
      (0): StandardFFNLayer(
        (norm): RMSNorm((1024,), eps=1e-06, elementwise_affine=True)
        (w1): Linear(in_features=1024, out_features=1024, bias=False)
        (w2): Linear(in_features=1024, out_features=1024, bias=False)
        (drop): Dropout(p=0.1, inplace=False)
        (act): GELU(approximate='none')
      )
    )
  )
  (key_proj_out): Linear(in_features=1024, out_features=1024, bias=True)
  (value_proj_out): Linear(in_features=1024, out_features=1024, bias=True)
), C2CProjector(
  (key_in): Linear(in_features=1152, out_features=1024, bias=True)
  (value_in): Linear(in_features=1152, out_features=1024, bias=True)
  (key_mlp1): RegularMLP(
    (blocks): ModuleList(
      (0): StandardFFNLayer(
        (norm): RMSNorm((1024,), eps=1e-06, elementwise_affine=True)
        (w1): Linear(in_features=1024, out_features=1024, bias=False)
        (w2): Linear(in_features=1024, out_features=1024, bias=False)
        (drop): Dropout(p=0.1, inplace=False)
        (act): GELU(approximate='none')
      )
    )
  )
  (value_mlp1): RegularMLP(
    (blocks): ModuleList(
      (0): StandardFFNLayer(
        (norm): RMSNorm((1024,), eps=1e-06, elementwise_affine=True)
        (w1): Linear(in_features=1024, out_features=1024, bias=False)
        (w2): Linear(in_features=1024, out_features=1024, bias=False)
        (drop): Dropout(p=0.1, inplace=False)
        (act): GELU(approximate='none')
      )
    )
  )
  (key_scalar_mlp2): RegularMLP(
    (blocks): ModuleList(
      (0): StandardFFNLayer(
        (norm): RMSNorm((1024,), eps=1e-06, elementwise_affine=True)
        (w1): Linear(in_features=1024, out_features=1024, bias=False)
        (w2): Linear(in_features=1024, out_features=1024, bias=False)
        (drop): Dropout(p=0.1, inplace=False)
        (act): GELU(approximate='none')
      )
    )
  )
  (value_scalar_mlp2): RegularMLP(
    (blocks): ModuleList(
      (0): StandardFFNLayer(
        (norm): RMSNorm((1024,), eps=1e-06, elementwise_affine=True)
        (w1): Linear(in_features=1024, out_features=1024, bias=False)
        (w2): Linear(in_features=1024, out_features=1024, bias=False)
        (drop): Dropout(p=0.1, inplace=False)
        (act): GELU(approximate='none')
      )
    )
  )
  (key_scalar_head): Linear(in_features=1024, out_features=8, bias=True)
  (value_scalar_head): Linear(in_features=1024, out_features=8, bias=True)
  (key_proj_mlp2): RegularMLP(
    (blocks): ModuleList(
      (0): StandardFFNLayer(
        (norm): RMSNorm((1024,), eps=1e-06, elementwise_affine=True)
        (w1): Linear(in_features=1024, out_features=1024, bias=False)
        (w2): Linear(in_features=1024, out_features=1024, bias=False)
        (drop): Dropout(p=0.1, inplace=False)
        (act): GELU(approximate='none')
      )
    )
  )
  (value_proj_mlp2): RegularMLP(
    (blocks): ModuleList(
      (0): StandardFFNLayer(
        (norm): RMSNorm((1024,), eps=1e-06, elementwise_affine=True)
        (w1): Linear(in_features=1024, out_features=1024, bias=False)
        (w2): Linear(in_features=1024, out_features=1024, bias=False)
        (drop): Dropout(p=0.1, inplace=False)
        (act): GELU(approximate='none')
      )
    )
  )
  (key_proj_out): Linear(in_features=1024, out_features=1024, bias=True)
  (value_proj_out): Linear(in_features=1024, out_features=1024, bias=True)
), C2CProjector(
  (key_in): Linear(in_features=1152, out_features=1024, bias=True)
  (value_in): Linear(in_features=1152, out_features=1024, bias=True)
  (key_mlp1): RegularMLP(
    (blocks): ModuleList(
      (0): StandardFFNLayer(
        (norm): RMSNorm((1024,), eps=1e-06, elementwise_affine=True)
        (w1): Linear(in_features=1024, out_features=1024, bias=False)
        (w2): Linear(in_features=1024, out_features=1024, bias=False)
        (drop): Dropout(p=0.1, inplace=False)
        (act): GELU(approximate='none')
      )
    )
  )
  (value_mlp1): RegularMLP(
    (blocks): ModuleList(
      (0): StandardFFNLayer(
        (norm): RMSNorm((1024,), eps=1e-06, elementwise_affine=True)
        (w1): Linear(in_features=1024, out_features=1024, bias=False)
        (w2): Linear(in_features=1024, out_features=1024, bias=False)
        (drop): Dropout(p=0.1, inplace=False)
        (act): GELU(approximate='none')
      )
    )
  )
  (key_scalar_mlp2): RegularMLP(
    (blocks): ModuleList(
      (0): StandardFFNLayer(
        (norm): RMSNorm((1024,), eps=1e-06, elementwise_affine=True)
        (w1): Linear(in_features=1024, out_features=1024, bias=False)
        (w2): Linear(in_features=1024, out_features=1024, bias=False)
        (drop): Dropout(p=0.1, inplace=False)
        (act): GELU(approximate='none')
      )
    )
  )
  (value_scalar_mlp2): RegularMLP(
    (blocks): ModuleList(
      (0): StandardFFNLayer(
        (norm): RMSNorm((1024,), eps=1e-06, elementwise_affine=True)
        (w1): Linear(in_features=1024, out_features=1024, bias=False)
        (w2): Linear(in_features=1024, out_features=1024, bias=False)
        (drop): Dropout(p=0.1, inplace=False)
        (act): GELU(approximate='none')
      )
    )
  )
  (key_scalar_head): Linear(in_features=1024, out_features=8, bias=True)
  (value_scalar_head): Linear(in_features=1024, out_features=8, bias=True)
  (key_proj_mlp2): RegularMLP(
    (blocks): ModuleList(
      (0): StandardFFNLayer(
        (norm): RMSNorm((1024,), eps=1e-06, elementwise_affine=True)
        (w1): Linear(in_features=1024, out_features=1024, bias=False)
        (w2): Linear(in_features=1024, out_features=1024, bias=False)
        (drop): Dropout(p=0.1, inplace=False)
        (act): GELU(approximate='none')
      )
    )
  )
  (value_proj_mlp2): RegularMLP(
    (blocks): ModuleList(
      (0): StandardFFNLayer(
        (norm): RMSNorm((1024,), eps=1e-06, elementwise_affine=True)
        (w1): Linear(in_features=1024, out_features=1024, bias=False)
        (w2): Linear(in_features=1024, out_features=1024, bias=False)
        (drop): Dropout(p=0.1, inplace=False)
        (act): GELU(approximate='none')
      )
    )
  )
  (key_proj_out): Linear(in_features=1024, out_features=1024, bias=True)
  (value_proj_out): Linear(in_features=1024, out_features=1024, bias=True)
), C2CProjector(
  (key_in): Linear(in_features=1152, out_features=1024, bias=True)
  (value_in): Linear(in_features=1152, out_features=1024, bias=True)
  (key_mlp1): RegularMLP(
    (blocks): ModuleList(
      (0): StandardFFNLayer(
        (norm): RMSNorm((1024,), eps=1e-06, elementwise_affine=True)
        (w1): Linear(in_features=1024, out_features=1024, bias=False)
        (w2): Linear(in_features=1024, out_features=1024, bias=False)
        (drop): Dropout(p=0.1, inplace=False)
        (act): GELU(approximate='none')
      )
    )
  )
  (value_mlp1): RegularMLP(
    (blocks): ModuleList(
      (0): StandardFFNLayer(
        (norm): RMSNorm((1024,), eps=1e-06, elementwise_affine=True)
        (w1): Linear(in_features=1024, out_features=1024, bias=False)
        (w2): Linear(in_features=1024, out_features=1024, bias=False)
        (drop): Dropout(p=0.1, inplace=False)
        (act): GELU(approximate='none')
      )
    )
  )
  (key_scalar_mlp2): RegularMLP(
    (blocks): ModuleList(
      (0): StandardFFNLayer(
        (norm): RMSNorm((1024,), eps=1e-06, elementwise_affine=True)
        (w1): Linear(in_features=1024, out_features=1024, bias=False)
        (w2): Linear(in_features=1024, out_features=1024, bias=False)
        (drop): Dropout(p=0.1, inplace=False)
        (act): GELU(approximate='none')
      )
    )
  )
  (value_scalar_mlp2): RegularMLP(
    (blocks): ModuleList(
      (0): StandardFFNLayer(
        (norm): RMSNorm((1024,), eps=1e-06, elementwise_affine=True)
        (w1): Linear(in_features=1024, out_features=1024, bias=False)
        (w2): Linear(in_features=1024, out_features=1024, bias=False)
        (drop): Dropout(p=0.1, inplace=False)
        (act): GELU(approximate='none')
      )
    )
  )
  (key_scalar_head): Linear(in_features=1024, out_features=8, bias=True)
  (value_scalar_head): Linear(in_features=1024, out_features=8, bias=True)
  (key_proj_mlp2): RegularMLP(
    (blocks): ModuleList(
      (0): StandardFFNLayer(
        (norm): RMSNorm((1024,), eps=1e-06, elementwise_affine=True)
        (w1): Linear(in_features=1024, out_features=1024, bias=False)
        (w2): Linear(in_features=1024, out_features=1024, bias=False)
        (drop): Dropout(p=0.1, inplace=False)
        (act): GELU(approximate='none')
      )
    )
  )
  (value_proj_mlp2): RegularMLP(
    (blocks): ModuleList(
      (0): StandardFFNLayer(
        (norm): RMSNorm((1024,), eps=1e-06, elementwise_affine=True)
        (w1): Linear(in_features=1024, out_features=1024, bias=False)
        (w2): Linear(in_features=1024, out_features=1024, bias=False)
        (drop): Dropout(p=0.1, inplace=False)
        (act): GELU(approximate='none')
      )
    )
  )
  (key_proj_out): Linear(in_features=1024, out_features=1024, bias=True)
  (value_proj_out): Linear(in_features=1024, out_features=1024, bias=True)
), C2CProjector(
  (key_in): Linear(in_features=1152, out_features=1024, bias=True)
  (value_in): Linear(in_features=1152, out_features=1024, bias=True)
  (key_mlp1): RegularMLP(
    (blocks): ModuleList(
      (0): StandardFFNLayer(
        (norm): RMSNorm((1024,), eps=1e-06, elementwise_affine=True)
        (w1): Linear(in_features=1024, out_features=1024, bias=False)
        (w2): Linear(in_features=1024, out_features=1024, bias=False)
        (drop): Dropout(p=0.1, inplace=False)
        (act): GELU(approximate='none')
      )
    )
  )
  (value_mlp1): RegularMLP(
    (blocks): ModuleList(
      (0): StandardFFNLayer(
        (norm): RMSNorm((1024,), eps=1e-06, elementwise_affine=True)
        (w1): Linear(in_features=1024, out_features=1024, bias=False)
        (w2): Linear(in_features=1024, out_features=1024, bias=False)
        (drop): Dropout(p=0.1, inplace=False)
        (act): GELU(approximate='none')
      )
    )
  )
  (key_scalar_mlp2): RegularMLP(
    (blocks): ModuleList(
      (0): StandardFFNLayer(
        (norm): RMSNorm((1024,), eps=1e-06, elementwise_affine=True)
        (w1): Linear(in_features=1024, out_features=1024, bias=False)
        (w2): Linear(in_features=1024, out_features=1024, bias=False)
        (drop): Dropout(p=0.1, inplace=False)
        (act): GELU(approximate='none')
      )
    )
  )
  (value_scalar_mlp2): RegularMLP(
    (blocks): ModuleList(
      (0): StandardFFNLayer(
        (norm): RMSNorm((1024,), eps=1e-06, elementwise_affine=True)
        (w1): Linear(in_features=1024, out_features=1024, bias=False)
        (w2): Linear(in_features=1024, out_features=1024, bias=False)
        (drop): Dropout(p=0.1, inplace=False)
        (act): GELU(approximate='none')
      )
    )
  )
  (key_scalar_head): Linear(in_features=1024, out_features=8, bias=True)
  (value_scalar_head): Linear(in_features=1024, out_features=8, bias=True)
  (key_proj_mlp2): RegularMLP(
    (blocks): ModuleList(
      (0): StandardFFNLayer(
        (norm): RMSNorm((1024,), eps=1e-06, elementwise_affine=True)
        (w1): Linear(in_features=1024, out_features=1024, bias=False)
        (w2): Linear(in_features=1024, out_features=1024, bias=False)
        (drop): Dropout(p=0.1, inplace=False)
        (act): GELU(approximate='none')
      )
    )
  )
  (value_proj_mlp2): RegularMLP(
    (blocks): ModuleList(
      (0): StandardFFNLayer(
        (norm): RMSNorm((1024,), eps=1e-06, elementwise_affine=True)
        (w1): Linear(in_features=1024, out_features=1024, bias=False)
        (w2): Linear(in_features=1024, out_features=1024, bias=False)
        (drop): Dropout(p=0.1, inplace=False)
        (act): GELU(approximate='none')
      )
    )
  )
  (key_proj_out): Linear(in_features=1024, out_features=1024, bias=True)
  (value_proj_out): Linear(in_features=1024, out_features=1024, bias=True)
), C2CProjector(
  (key_in): Linear(in_features=1152, out_features=1024, bias=True)
  (value_in): Linear(in_features=1152, out_features=1024, bias=True)
  (key_mlp1): RegularMLP(
    (blocks): ModuleList(
      (0): StandardFFNLayer(
        (norm): RMSNorm((1024,), eps=1e-06, elementwise_affine=True)
        (w1): Linear(in_features=1024, out_features=1024, bias=False)
        (w2): Linear(in_features=1024, out_features=1024, bias=False)
        (drop): Dropout(p=0.1, inplace=False)
        (act): GELU(approximate='none')
      )
    )
  )
  (value_mlp1): RegularMLP(
    (blocks): ModuleList(
      (0): StandardFFNLayer(
        (norm): RMSNorm((1024,), eps=1e-06, elementwise_affine=True)
        (w1): Linear(in_features=1024, out_features=1024, bias=False)
        (w2): Linear(in_features=1024, out_features=1024, bias=False)
        (drop): Dropout(p=0.1, inplace=False)
        (act): GELU(approximate='none')
      )
    )
  )
  (key_scalar_mlp2): RegularMLP(
    (blocks): ModuleList(
      (0): StandardFFNLayer(
        (norm): RMSNorm((1024,), eps=1e-06, elementwise_affine=True)
        (w1): Linear(in_features=1024, out_features=1024, bias=False)
        (w2): Linear(in_features=1024, out_features=1024, bias=False)
        (drop): Dropout(p=0.1, inplace=False)
        (act): GELU(approximate='none')
      )
    )
  )
  (value_scalar_mlp2): RegularMLP(
    (blocks): ModuleList(
      (0): StandardFFNLayer(
        (norm): RMSNorm((1024,), eps=1e-06, elementwise_affine=True)
        (w1): Linear(in_features=1024, out_features=1024, bias=False)
        (w2): Linear(in_features=1024, out_features=1024, bias=False)
        (drop): Dropout(p=0.1, inplace=False)
        (act): GELU(approximate='none')
      )
    )
  )
  (key_scalar_head): Linear(in_features=1024, out_features=8, bias=True)
  (value_scalar_head): Linear(in_features=1024, out_features=8, bias=True)
  (key_proj_mlp2): RegularMLP(
    (blocks): ModuleList(
      (0): StandardFFNLayer(
        (norm): RMSNorm((1024,), eps=1e-06, elementwise_affine=True)
        (w1): Linear(in_features=1024, out_features=1024, bias=False)
        (w2): Linear(in_features=1024, out_features=1024, bias=False)
        (drop): Dropout(p=0.1, inplace=False)
        (act): GELU(approximate='none')
      )
    )
  )
  (value_proj_mlp2): RegularMLP(
    (blocks): ModuleList(
      (0): StandardFFNLayer(
        (norm): RMSNorm((1024,), eps=1e-06, elementwise_affine=True)
        (w1): Linear(in_features=1024, out_features=1024, bias=False)
        (w2): Linear(in_features=1024, out_features=1024, bias=False)
        (drop): Dropout(p=0.1, inplace=False)
        (act): GELU(approximate='none')
      )
    )
  )
  (key_proj_out): Linear(in_features=1024, out_features=1024, bias=True)
  (value_proj_out): Linear(in_features=1024, out_features=1024, bias=True)
), C2CProjector(
  (key_in): Linear(in_features=1152, out_features=1024, bias=True)
  (value_in): Linear(in_features=1152, out_features=1024, bias=True)
  (key_mlp1): RegularMLP(
    (blocks): ModuleList(
      (0): StandardFFNLayer(
        (norm): RMSNorm((1024,), eps=1e-06, elementwise_affine=True)
        (w1): Linear(in_features=1024, out_features=1024, bias=False)
        (w2): Linear(in_features=1024, out_features=1024, bias=False)
        (drop): Dropout(p=0.1, inplace=False)
        (act): GELU(approximate='none')
      )
    )
  )
  (value_mlp1): RegularMLP(
    (blocks): ModuleList(
      (0): StandardFFNLayer(
        (norm): RMSNorm((1024,), eps=1e-06, elementwise_affine=True)
        (w1): Linear(in_features=1024, out_features=1024, bias=False)
        (w2): Linear(in_features=1024, out_features=1024, bias=False)
        (drop): Dropout(p=0.1, inplace=False)
        (act): GELU(approximate='none')
      )
    )
  )
  (key_scalar_mlp2): RegularMLP(
    (blocks): ModuleList(
      (0): StandardFFNLayer(
        (norm): RMSNorm((1024,), eps=1e-06, elementwise_affine=True)
        (w1): Linear(in_features=1024, out_features=1024, bias=False)
        (w2): Linear(in_features=1024, out_features=1024, bias=False)
        (drop): Dropout(p=0.1, inplace=False)
        (act): GELU(approximate='none')
      )
    )
  )
  (value_scalar_mlp2): RegularMLP(
    (blocks): ModuleList(
      (0): StandardFFNLayer(
        (norm): RMSNorm((1024,), eps=1e-06, elementwise_affine=True)
        (w1): Linear(in_features=1024, out_features=1024, bias=False)
        (w2): Linear(in_features=1024, out_features=1024, bias=False)
        (drop): Dropout(p=0.1, inplace=False)
        (act): GELU(approximate='none')
      )
    )
  )
  (key_scalar_head): Linear(in_features=1024, out_features=8, bias=True)
  (value_scalar_head): Linear(in_features=1024, out_features=8, bias=True)
  (key_proj_mlp2): RegularMLP(
    (blocks): ModuleList(
      (0): StandardFFNLayer(
        (norm): RMSNorm((1024,), eps=1e-06, elementwise_affine=True)
        (w1): Linear(in_features=1024, out_features=1024, bias=False)
        (w2): Linear(in_features=1024, out_features=1024, bias=False)
        (drop): Dropout(p=0.1, inplace=False)
        (act): GELU(approximate='none')
      )
    )
  )
  (value_proj_mlp2): RegularMLP(
    (blocks): ModuleList(
      (0): StandardFFNLayer(
        (norm): RMSNorm((1024,), eps=1e-06, elementwise_affine=True)
        (w1): Linear(in_features=1024, out_features=1024, bias=False)
        (w2): Linear(in_features=1024, out_features=1024, bias=False)
        (drop): Dropout(p=0.1, inplace=False)
        (act): GELU(approximate='none')
      )
    )
  )
  (key_proj_out): Linear(in_features=1024, out_features=1024, bias=True)
  (value_proj_out): Linear(in_features=1024, out_features=1024, bias=True)
), C2CProjector(
  (key_in): Linear(in_features=1152, out_features=1024, bias=True)
  (value_in): Linear(in_features=1152, out_features=1024, bias=True)
  (key_mlp1): RegularMLP(
    (blocks): ModuleList(
      (0): StandardFFNLayer(
        (norm): RMSNorm((1024,), eps=1e-06, elementwise_affine=True)
        (w1): Linear(in_features=1024, out_features=1024, bias=False)
        (w2): Linear(in_features=1024, out_features=1024, bias=False)
        (drop): Dropout(p=0.1, inplace=False)
        (act): GELU(approximate='none')
      )
    )
  )
  (value_mlp1): RegularMLP(
    (blocks): ModuleList(
      (0): StandardFFNLayer(
        (norm): RMSNorm((1024,), eps=1e-06, elementwise_affine=True)
        (w1): Linear(in_features=1024, out_features=1024, bias=False)
        (w2): Linear(in_features=1024, out_features=1024, bias=False)
        (drop): Dropout(p=0.1, inplace=False)
        (act): GELU(approximate='none')
      )
    )
  )
  (key_scalar_mlp2): RegularMLP(
    (blocks): ModuleList(
      (0): StandardFFNLayer(
        (norm): RMSNorm((1024,), eps=1e-06, elementwise_affine=True)
        (w1): Linear(in_features=1024, out_features=1024, bias=False)
        (w2): Linear(in_features=1024, out_features=1024, bias=False)
        (drop): Dropout(p=0.1, inplace=False)
        (act): GELU(approximate='none')
      )
    )
  )
  (value_scalar_mlp2): RegularMLP(
    (blocks): ModuleList(
      (0): StandardFFNLayer(
        (norm): RMSNorm((1024,), eps=1e-06, elementwise_affine=True)
        (w1): Linear(in_features=1024, out_features=1024, bias=False)
        (w2): Linear(in_features=1024, out_features=1024, bias=False)
        (drop): Dropout(p=0.1, inplace=False)
        (act): GELU(approximate='none')
      )
    )
  )
  (key_scalar_head): Linear(in_features=1024, out_features=8, bias=True)
  (value_scalar_head): Linear(in_features=1024, out_features=8, bias=True)
  (key_proj_mlp2): RegularMLP(
    (blocks): ModuleList(
      (0): StandardFFNLayer(
        (norm): RMSNorm((1024,), eps=1e-06, elementwise_affine=True)
        (w1): Linear(in_features=1024, out_features=1024, bias=False)
        (w2): Linear(in_features=1024, out_features=1024, bias=False)
        (drop): Dropout(p=0.1, inplace=False)
        (act): GELU(approximate='none')
      )
    )
  )
  (value_proj_mlp2): RegularMLP(
    (blocks): ModuleList(
      (0): StandardFFNLayer(
        (norm): RMSNorm((1024,), eps=1e-06, elementwise_affine=True)
        (w1): Linear(in_features=1024, out_features=1024, bias=False)
        (w2): Linear(in_features=1024, out_features=1024, bias=False)
        (drop): Dropout(p=0.1, inplace=False)
        (act): GELU(approximate='none')
      )
    )
  )
  (key_proj_out): Linear(in_features=1024, out_features=1024, bias=True)
  (value_proj_out): Linear(in_features=1024, out_features=1024, bias=True)
), C2CProjector(
  (key_in): Linear(in_features=1152, out_features=1024, bias=True)
  (value_in): Linear(in_features=1152, out_features=1024, bias=True)
  (key_mlp1): RegularMLP(
    (blocks): ModuleList(
      (0): StandardFFNLayer(
        (norm): RMSNorm((1024,), eps=1e-06, elementwise_affine=True)
        (w1): Linear(in_features=1024, out_features=1024, bias=False)
        (w2): Linear(in_features=1024, out_features=1024, bias=False)
        (drop): Dropout(p=0.1, inplace=False)
        (act): GELU(approximate='none')
      )
    )
  )
  (value_mlp1): RegularMLP(
    (blocks): ModuleList(
      (0): StandardFFNLayer(
        (norm): RMSNorm((1024,), eps=1e-06, elementwise_affine=True)
        (w1): Linear(in_features=1024, out_features=1024, bias=False)
        (w2): Linear(in_features=1024, out_features=1024, bias=False)
        (drop): Dropout(p=0.1, inplace=False)
        (act): GELU(approximate='none')
      )
    )
  )
  (key_scalar_mlp2): RegularMLP(
    (blocks): ModuleList(
      (0): StandardFFNLayer(
        (norm): RMSNorm((1024,), eps=1e-06, elementwise_affine=True)
        (w1): Linear(in_features=1024, out_features=1024, bias=False)
        (w2): Linear(in_features=1024, out_features=1024, bias=False)
        (drop): Dropout(p=0.1, inplace=False)
        (act): GELU(approximate='none')
      )
    )
  )
  (value_scalar_mlp2): RegularMLP(
    (blocks): ModuleList(
      (0): StandardFFNLayer(
        (norm): RMSNorm((1024,), eps=1e-06, elementwise_affine=True)
        (w1): Linear(in_features=1024, out_features=1024, bias=False)
        (w2): Linear(in_features=1024, out_features=1024, bias=False)
        (drop): Dropout(p=0.1, inplace=False)
        (act): GELU(approximate='none')
      )
    )
  )
  (key_scalar_head): Linear(in_features=1024, out_features=8, bias=True)
  (value_scalar_head): Linear(in_features=1024, out_features=8, bias=True)
  (key_proj_mlp2): RegularMLP(
    (blocks): ModuleList(
      (0): StandardFFNLayer(
        (norm): RMSNorm((1024,), eps=1e-06, elementwise_affine=True)
        (w1): Linear(in_features=1024, out_features=1024, bias=False)
        (w2): Linear(in_features=1024, out_features=1024, bias=False)
        (drop): Dropout(p=0.1, inplace=False)
        (act): GELU(approximate='none')
      )
    )
  )
  (value_proj_mlp2): RegularMLP(
    (blocks): ModuleList(
      (0): StandardFFNLayer(
        (norm): RMSNorm((1024,), eps=1e-06, elementwise_affine=True)
        (w1): Linear(in_features=1024, out_features=1024, bias=False)
        (w2): Linear(in_features=1024, out_features=1024, bias=False)
        (drop): Dropout(p=0.1, inplace=False)
        (act): GELU(approximate='none')
      )
    )
  )
  (key_proj_out): Linear(in_features=1024, out_features=1024, bias=True)
  (value_proj_out): Linear(in_features=1024, out_features=1024, bias=True)
), C2CProjector(
  (key_in): Linear(in_features=1152, out_features=1024, bias=True)
  (value_in): Linear(in_features=1152, out_features=1024, bias=True)
  (key_mlp1): RegularMLP(
    (blocks): ModuleList(
      (0): StandardFFNLayer(
        (norm): RMSNorm((1024,), eps=1e-06, elementwise_affine=True)
        (w1): Linear(in_features=1024, out_features=1024, bias=False)
        (w2): Linear(in_features=1024, out_features=1024, bias=False)
        (drop): Dropout(p=0.1, inplace=False)
        (act): GELU(approximate='none')
      )
    )
  )
  (value_mlp1): RegularMLP(
    (blocks): ModuleList(
      (0): StandardFFNLayer(
        (norm): RMSNorm((1024,), eps=1e-06, elementwise_affine=True)
        (w1): Linear(in_features=1024, out_features=1024, bias=False)
        (w2): Linear(in_features=1024, out_features=1024, bias=False)
        (drop): Dropout(p=0.1, inplace=False)
        (act): GELU(approximate='none')
      )
    )
  )
  (key_scalar_mlp2): RegularMLP(
    (blocks): ModuleList(
      (0): StandardFFNLayer(
        (norm): RMSNorm((1024,), eps=1e-06, elementwise_affine=True)
        (w1): Linear(in_features=1024, out_features=1024, bias=False)
        (w2): Linear(in_features=1024, out_features=1024, bias=False)
        (drop): Dropout(p=0.1, inplace=False)
        (act): GELU(approximate='none')
      )
    )
  )
  (value_scalar_mlp2): RegularMLP(
    (blocks): ModuleList(
      (0): StandardFFNLayer(
        (norm): RMSNorm((1024,), eps=1e-06, elementwise_affine=True)
        (w1): Linear(in_features=1024, out_features=1024, bias=False)
        (w2): Linear(in_features=1024, out_features=1024, bias=False)
        (drop): Dropout(p=0.1, inplace=False)
        (act): GELU(approximate='none')
      )
    )
  )
  (key_scalar_head): Linear(in_features=1024, out_features=8, bias=True)
  (value_scalar_head): Linear(in_features=1024, out_features=8, bias=True)
  (key_proj_mlp2): RegularMLP(
    (blocks): ModuleList(
      (0): StandardFFNLayer(
        (norm): RMSNorm((1024,), eps=1e-06, elementwise_affine=True)
        (w1): Linear(in_features=1024, out_features=1024, bias=False)
        (w2): Linear(in_features=1024, out_features=1024, bias=False)
        (drop): Dropout(p=0.1, inplace=False)
        (act): GELU(approximate='none')
      )
    )
  )
  (value_proj_mlp2): RegularMLP(
    (blocks): ModuleList(
      (0): StandardFFNLayer(
        (norm): RMSNorm((1024,), eps=1e-06, elementwise_affine=True)
        (w1): Linear(in_features=1024, out_features=1024, bias=False)
        (w2): Linear(in_features=1024, out_features=1024, bias=False)
        (drop): Dropout(p=0.1, inplace=False)
        (act): GELU(approximate='none')
      )
    )
  )
  (key_proj_out): Linear(in_features=1024, out_features=1024, bias=True)
  (value_proj_out): Linear(in_features=1024, out_features=1024, bias=True)
), C2CProjector(
  (key_in): Linear(in_features=1152, out_features=1024, bias=True)
  (value_in): Linear(in_features=1152, out_features=1024, bias=True)
  (key_mlp1): RegularMLP(
    (blocks): ModuleList(
      (0): StandardFFNLayer(
        (norm): RMSNorm((1024,), eps=1e-06, elementwise_affine=True)
        (w1): Linear(in_features=1024, out_features=1024, bias=False)
        (w2): Linear(in_features=1024, out_features=1024, bias=False)
        (drop): Dropout(p=0.1, inplace=False)
        (act): GELU(approximate='none')
      )
    )
  )
  (value_mlp1): RegularMLP(
    (blocks): ModuleList(
      (0): StandardFFNLayer(
        (norm): RMSNorm((1024,), eps=1e-06, elementwise_affine=True)
        (w1): Linear(in_features=1024, out_features=1024, bias=False)
        (w2): Linear(in_features=1024, out_features=1024, bias=False)
        (drop): Dropout(p=0.1, inplace=False)
        (act): GELU(approximate='none')
      )
    )
  )
  (key_scalar_mlp2): RegularMLP(
    (blocks): ModuleList(
      (0): StandardFFNLayer(
        (norm): RMSNorm((1024,), eps=1e-06, elementwise_affine=True)
        (w1): Linear(in_features=1024, out_features=1024, bias=False)
        (w2): Linear(in_features=1024, out_features=1024, bias=False)
        (drop): Dropout(p=0.1, inplace=False)
        (act): GELU(approximate='none')
      )
    )
  )
  (value_scalar_mlp2): RegularMLP(
    (blocks): ModuleList(
      (0): StandardFFNLayer(
        (norm): RMSNorm((1024,), eps=1e-06, elementwise_affine=True)
        (w1): Linear(in_features=1024, out_features=1024, bias=False)
        (w2): Linear(in_features=1024, out_features=1024, bias=False)
        (drop): Dropout(p=0.1, inplace=False)
        (act): GELU(approximate='none')
      )
    )
  )
  (key_scalar_head): Linear(in_features=1024, out_features=8, bias=True)
  (value_scalar_head): Linear(in_features=1024, out_features=8, bias=True)
  (key_proj_mlp2): RegularMLP(
    (blocks): ModuleList(
      (0): StandardFFNLayer(
        (norm): RMSNorm((1024,), eps=1e-06, elementwise_affine=True)
        (w1): Linear(in_features=1024, out_features=1024, bias=False)
        (w2): Linear(in_features=1024, out_features=1024, bias=False)
        (drop): Dropout(p=0.1, inplace=False)
        (act): GELU(approximate='none')
      )
    )
  )
  (value_proj_mlp2): RegularMLP(
    (blocks): ModuleList(
      (0): StandardFFNLayer(
        (norm): RMSNorm((1024,), eps=1e-06, elementwise_affine=True)
        (w1): Linear(in_features=1024, out_features=1024, bias=False)
        (w2): Linear(in_features=1024, out_features=1024, bias=False)
        (drop): Dropout(p=0.1, inplace=False)
        (act): GELU(approximate='none')
      )
    )
  )
  (key_proj_out): Linear(in_features=1024, out_features=1024, bias=True)
  (value_proj_out): Linear(in_features=1024, out_features=1024, bias=True)
), C2CProjector(
  (key_in): Linear(in_features=1152, out_features=1024, bias=True)
  (value_in): Linear(in_features=1152, out_features=1024, bias=True)
  (key_mlp1): RegularMLP(
    (blocks): ModuleList(
      (0): StandardFFNLayer(
        (norm): RMSNorm((1024,), eps=1e-06, elementwise_affine=True)
        (w1): Linear(in_features=1024, out_features=1024, bias=False)
        (w2): Linear(in_features=1024, out_features=1024, bias=False)
        (drop): Dropout(p=0.1, inplace=False)
        (act): GELU(approximate='none')
      )
    )
  )
  (value_mlp1): RegularMLP(
    (blocks): ModuleList(
      (0): StandardFFNLayer(
        (norm): RMSNorm((1024,), eps=1e-06, elementwise_affine=True)
        (w1): Linear(in_features=1024, out_features=1024, bias=False)
        (w2): Linear(in_features=1024, out_features=1024, bias=False)
        (drop): Dropout(p=0.1, inplace=False)
        (act): GELU(approximate='none')
      )
    )
  )
  (key_scalar_mlp2): RegularMLP(
    (blocks): ModuleList(
      (0): StandardFFNLayer(
        (norm): RMSNorm((1024,), eps=1e-06, elementwise_affine=True)
        (w1): Linear(in_features=1024, out_features=1024, bias=False)
        (w2): Linear(in_features=1024, out_features=1024, bias=False)
        (drop): Dropout(p=0.1, inplace=False)
        (act): GELU(approximate='none')
      )
    )
  )
  (value_scalar_mlp2): RegularMLP(
    (blocks): ModuleList(
      (0): StandardFFNLayer(
        (norm): RMSNorm((1024,), eps=1e-06, elementwise_affine=True)
        (w1): Linear(in_features=1024, out_features=1024, bias=False)
        (w2): Linear(in_features=1024, out_features=1024, bias=False)
        (drop): Dropout(p=0.1, inplace=False)
        (act): GELU(approximate='none')
      )
    )
  )
  (key_scalar_head): Linear(in_features=1024, out_features=8, bias=True)
  (value_scalar_head): Linear(in_features=1024, out_features=8, bias=True)
  (key_proj_mlp2): RegularMLP(
    (blocks): ModuleList(
      (0): StandardFFNLayer(
        (norm): RMSNorm((1024,), eps=1e-06, elementwise_affine=True)
        (w1): Linear(in_features=1024, out_features=1024, bias=False)
        (w2): Linear(in_features=1024, out_features=1024, bias=False)
        (drop): Dropout(p=0.1, inplace=False)
        (act): GELU(approximate='none')
      )
    )
  )
  (value_proj_mlp2): RegularMLP(
    (blocks): ModuleList(
      (0): StandardFFNLayer(
        (norm): RMSNorm((1024,), eps=1e-06, elementwise_affine=True)
        (w1): Linear(in_features=1024, out_features=1024, bias=False)
        (w2): Linear(in_features=1024, out_features=1024, bias=False)
        (drop): Dropout(p=0.1, inplace=False)
        (act): GELU(approximate='none')
      )
    )
  )
  (key_proj_out): Linear(in_features=1024, out_features=1024, bias=True)
  (value_proj_out): Linear(in_features=1024, out_features=1024, bias=True)
), C2CProjector(
  (key_in): Linear(in_features=1152, out_features=1024, bias=True)
  (value_in): Linear(in_features=1152, out_features=1024, bias=True)
  (key_mlp1): RegularMLP(
    (blocks): ModuleList(
      (0): StandardFFNLayer(
        (norm): RMSNorm((1024,), eps=1e-06, elementwise_affine=True)
        (w1): Linear(in_features=1024, out_features=1024, bias=False)
        (w2): Linear(in_features=1024, out_features=1024, bias=False)
        (drop): Dropout(p=0.1, inplace=False)
        (act): GELU(approximate='none')
      )
    )
  )
  (value_mlp1): RegularMLP(
    (blocks): ModuleList(
      (0): StandardFFNLayer(
        (norm): RMSNorm((1024,), eps=1e-06, elementwise_affine=True)
        (w1): Linear(in_features=1024, out_features=1024, bias=False)
        (w2): Linear(in_features=1024, out_features=1024, bias=False)
        (drop): Dropout(p=0.1, inplace=False)
        (act): GELU(approximate='none')
      )
    )
  )
  (key_scalar_mlp2): RegularMLP(
    (blocks): ModuleList(
      (0): StandardFFNLayer(
        (norm): RMSNorm((1024,), eps=1e-06, elementwise_affine=True)
        (w1): Linear(in_features=1024, out_features=1024, bias=False)
        (w2): Linear(in_features=1024, out_features=1024, bias=False)
        (drop): Dropout(p=0.1, inplace=False)
        (act): GELU(approximate='none')
      )
    )
  )
  (value_scalar_mlp2): RegularMLP(
    (blocks): ModuleList(
      (0): StandardFFNLayer(
        (norm): RMSNorm((1024,), eps=1e-06, elementwise_affine=True)
        (w1): Linear(in_features=1024, out_features=1024, bias=False)
        (w2): Linear(in_features=1024, out_features=1024, bias=False)
        (drop): Dropout(p=0.1, inplace=False)
        (act): GELU(approximate='none')
      )
    )
  )
  (key_scalar_head): Linear(in_features=1024, out_features=8, bias=True)
  (value_scalar_head): Linear(in_features=1024, out_features=8, bias=True)
  (key_proj_mlp2): RegularMLP(
    (blocks): ModuleList(
      (0): StandardFFNLayer(
        (norm): RMSNorm((1024,), eps=1e-06, elementwise_affine=True)
        (w1): Linear(in_features=1024, out_features=1024, bias=False)
        (w2): Linear(in_features=1024, out_features=1024, bias=False)
        (drop): Dropout(p=0.1, inplace=False)
        (act): GELU(approximate='none')
      )
    )
  )
  (value_proj_mlp2): RegularMLP(
    (blocks): ModuleList(
      (0): StandardFFNLayer(
        (norm): RMSNorm((1024,), eps=1e-06, elementwise_affine=True)
        (w1): Linear(in_features=1024, out_features=1024, bias=False)
        (w2): Linear(in_features=1024, out_features=1024, bias=False)
        (drop): Dropout(p=0.1, inplace=False)
        (act): GELU(approximate='none')
      )
    )
  )
  (key_proj_out): Linear(in_features=1024, out_features=1024, bias=True)
  (value_proj_out): Linear(in_features=1024, out_features=1024, bias=True)
), C2CProjector(
  (key_in): Linear(in_features=1152, out_features=1024, bias=True)
  (value_in): Linear(in_features=1152, out_features=1024, bias=True)
  (key_mlp1): RegularMLP(
    (blocks): ModuleList(
      (0): StandardFFNLayer(
        (norm): RMSNorm((1024,), eps=1e-06, elementwise_affine=True)
        (w1): Linear(in_features=1024, out_features=1024, bias=False)
        (w2): Linear(in_features=1024, out_features=1024, bias=False)
        (drop): Dropout(p=0.1, inplace=False)
        (act): GELU(approximate='none')
      )
    )
  )
  (value_mlp1): RegularMLP(
    (blocks): ModuleList(
      (0): StandardFFNLayer(
        (norm): RMSNorm((1024,), eps=1e-06, elementwise_affine=True)
        (w1): Linear(in_features=1024, out_features=1024, bias=False)
        (w2): Linear(in_features=1024, out_features=1024, bias=False)
        (drop): Dropout(p=0.1, inplace=False)
        (act): GELU(approximate='none')
      )
    )
  )
  (key_scalar_mlp2): RegularMLP(
    (blocks): ModuleList(
      (0): StandardFFNLayer(
        (norm): RMSNorm((1024,), eps=1e-06, elementwise_affine=True)
        (w1): Linear(in_features=1024, out_features=1024, bias=False)
        (w2): Linear(in_features=1024, out_features=1024, bias=False)
        (drop): Dropout(p=0.1, inplace=False)
        (act): GELU(approximate='none')
      )
    )
  )
  (value_scalar_mlp2): RegularMLP(
    (blocks): ModuleList(
      (0): StandardFFNLayer(
        (norm): RMSNorm((1024,), eps=1e-06, elementwise_affine=True)
        (w1): Linear(in_features=1024, out_features=1024, bias=False)
        (w2): Linear(in_features=1024, out_features=1024, bias=False)
        (drop): Dropout(p=0.1, inplace=False)
        (act): GELU(approximate='none')
      )
    )
  )
  (key_scalar_head): Linear(in_features=1024, out_features=8, bias=True)
  (value_scalar_head): Linear(in_features=1024, out_features=8, bias=True)
  (key_proj_mlp2): RegularMLP(
    (blocks): ModuleList(
      (0): StandardFFNLayer(
        (norm): RMSNorm((1024,), eps=1e-06, elementwise_affine=True)
        (w1): Linear(in_features=1024, out_features=1024, bias=False)
        (w2): Linear(in_features=1024, out_features=1024, bias=False)
        (drop): Dropout(p=0.1, inplace=False)
        (act): GELU(approximate='none')
      )
    )
  )
  (value_proj_mlp2): RegularMLP(
    (blocks): ModuleList(
      (0): StandardFFNLayer(
        (norm): RMSNorm((1024,), eps=1e-06, elementwise_affine=True)
        (w1): Linear(in_features=1024, out_features=1024, bias=False)
        (w2): Linear(in_features=1024, out_features=1024, bias=False)
        (drop): Dropout(p=0.1, inplace=False)
        (act): GELU(approximate='none')
      )
    )
  )
  (key_proj_out): Linear(in_features=1024, out_features=1024, bias=True)
  (value_proj_out): Linear(in_features=1024, out_features=1024, bias=True)
), C2CProjector(
  (key_in): Linear(in_features=1152, out_features=1024, bias=True)
  (value_in): Linear(in_features=1152, out_features=1024, bias=True)
  (key_mlp1): RegularMLP(
    (blocks): ModuleList(
      (0): StandardFFNLayer(
        (norm): RMSNorm((1024,), eps=1e-06, elementwise_affine=True)
        (w1): Linear(in_features=1024, out_features=1024, bias=False)
        (w2): Linear(in_features=1024, out_features=1024, bias=False)
        (drop): Dropout(p=0.1, inplace=False)
        (act): GELU(approximate='none')
      )
    )
  )
  (value_mlp1): RegularMLP(
    (blocks): ModuleList(
      (0): StandardFFNLayer(
        (norm): RMSNorm((1024,), eps=1e-06, elementwise_affine=True)
        (w1): Linear(in_features=1024, out_features=1024, bias=False)
        (w2): Linear(in_features=1024, out_features=1024, bias=False)
        (drop): Dropout(p=0.1, inplace=False)
        (act): GELU(approximate='none')
      )
    )
  )
  (key_scalar_mlp2): RegularMLP(
    (blocks): ModuleList(
      (0): StandardFFNLayer(
        (norm): RMSNorm((1024,), eps=1e-06, elementwise_affine=True)
        (w1): Linear(in_features=1024, out_features=1024, bias=False)
        (w2): Linear(in_features=1024, out_features=1024, bias=False)
        (drop): Dropout(p=0.1, inplace=False)
        (act): GELU(approximate='none')
      )
    )
  )
  (value_scalar_mlp2): RegularMLP(
    (blocks): ModuleList(
      (0): StandardFFNLayer(
        (norm): RMSNorm((1024,), eps=1e-06, elementwise_affine=True)
        (w1): Linear(in_features=1024, out_features=1024, bias=False)
        (w2): Linear(in_features=1024, out_features=1024, bias=False)
        (drop): Dropout(p=0.1, inplace=False)
        (act): GELU(approximate='none')
      )
    )
  )
  (key_scalar_head): Linear(in_features=1024, out_features=8, bias=True)
  (value_scalar_head): Linear(in_features=1024, out_features=8, bias=True)
  (key_proj_mlp2): RegularMLP(
    (blocks): ModuleList(
      (0): StandardFFNLayer(
        (norm): RMSNorm((1024,), eps=1e-06, elementwise_affine=True)
        (w1): Linear(in_features=1024, out_features=1024, bias=False)
        (w2): Linear(in_features=1024, out_features=1024, bias=False)
        (drop): Dropout(p=0.1, inplace=False)
        (act): GELU(approximate='none')
      )
    )
  )
  (value_proj_mlp2): RegularMLP(
    (blocks): ModuleList(
      (0): StandardFFNLayer(
        (norm): RMSNorm((1024,), eps=1e-06, elementwise_affine=True)
        (w1): Linear(in_features=1024, out_features=1024, bias=False)
        (w2): Linear(in_features=1024, out_features=1024, bias=False)
        (drop): Dropout(p=0.1, inplace=False)
        (act): GELU(approximate='none')
      )
    )
  )
  (key_proj_out): Linear(in_features=1024, out_features=1024, bias=True)
  (value_proj_out): Linear(in_features=1024, out_features=1024, bias=True)
), C2CProjector(
  (key_in): Linear(in_features=1152, out_features=1024, bias=True)
  (value_in): Linear(in_features=1152, out_features=1024, bias=True)
  (key_mlp1): RegularMLP(
    (blocks): ModuleList(
      (0): StandardFFNLayer(
        (norm): RMSNorm((1024,), eps=1e-06, elementwise_affine=True)
        (w1): Linear(in_features=1024, out_features=1024, bias=False)
        (w2): Linear(in_features=1024, out_features=1024, bias=False)
        (drop): Dropout(p=0.1, inplace=False)
        (act): GELU(approximate='none')
      )
    )
  )
  (value_mlp1): RegularMLP(
    (blocks): ModuleList(
      (0): StandardFFNLayer(
        (norm): RMSNorm((1024,), eps=1e-06, elementwise_affine=True)
        (w1): Linear(in_features=1024, out_features=1024, bias=False)
        (w2): Linear(in_features=1024, out_features=1024, bias=False)
        (drop): Dropout(p=0.1, inplace=False)
        (act): GELU(approximate='none')
      )
    )
  )
  (key_scalar_mlp2): RegularMLP(
    (blocks): ModuleList(
      (0): StandardFFNLayer(
        (norm): RMSNorm((1024,), eps=1e-06, elementwise_affine=True)
        (w1): Linear(in_features=1024, out_features=1024, bias=False)
        (w2): Linear(in_features=1024, out_features=1024, bias=False)
        (drop): Dropout(p=0.1, inplace=False)
        (act): GELU(approximate='none')
      )
    )
  )
  (value_scalar_mlp2): RegularMLP(
    (blocks): ModuleList(
      (0): StandardFFNLayer(
        (norm): RMSNorm((1024,), eps=1e-06, elementwise_affine=True)
        (w1): Linear(in_features=1024, out_features=1024, bias=False)
        (w2): Linear(in_features=1024, out_features=1024, bias=False)
        (drop): Dropout(p=0.1, inplace=False)
        (act): GELU(approximate='none')
      )
    )
  )
  (key_scalar_head): Linear(in_features=1024, out_features=8, bias=True)
  (value_scalar_head): Linear(in_features=1024, out_features=8, bias=True)
  (key_proj_mlp2): RegularMLP(
    (blocks): ModuleList(
      (0): StandardFFNLayer(
        (norm): RMSNorm((1024,), eps=1e-06, elementwise_affine=True)
        (w1): Linear(in_features=1024, out_features=1024, bias=False)
        (w2): Linear(in_features=1024, out_features=1024, bias=False)
        (drop): Dropout(p=0.1, inplace=False)
        (act): GELU(approximate='none')
      )
    )
  )
  (value_proj_mlp2): RegularMLP(
    (blocks): ModuleList(
      (0): StandardFFNLayer(
        (norm): RMSNorm((1024,), eps=1e-06, elementwise_affine=True)
        (w1): Linear(in_features=1024, out_features=1024, bias=False)
        (w2): Linear(in_features=1024, out_features=1024, bias=False)
        (drop): Dropout(p=0.1, inplace=False)
        (act): GELU(approximate='none')
      )
    )
  )
  (key_proj_out): Linear(in_features=1024, out_features=1024, bias=True)
  (value_proj_out): Linear(in_features=1024, out_features=1024, bias=True)
), C2CProjector(
  (key_in): Linear(in_features=1152, out_features=1024, bias=True)
  (value_in): Linear(in_features=1152, out_features=1024, bias=True)
  (key_mlp1): RegularMLP(
    (blocks): ModuleList(
      (0): StandardFFNLayer(
        (norm): RMSNorm((1024,), eps=1e-06, elementwise_affine=True)
        (w1): Linear(in_features=1024, out_features=1024, bias=False)
        (w2): Linear(in_features=1024, out_features=1024, bias=False)
        (drop): Dropout(p=0.1, inplace=False)
        (act): GELU(approximate='none')
      )
    )
  )
  (value_mlp1): RegularMLP(
    (blocks): ModuleList(
      (0): StandardFFNLayer(
        (norm): RMSNorm((1024,), eps=1e-06, elementwise_affine=True)
        (w1): Linear(in_features=1024, out_features=1024, bias=False)
        (w2): Linear(in_features=1024, out_features=1024, bias=False)
        (drop): Dropout(p=0.1, inplace=False)
        (act): GELU(approximate='none')
      )
    )
  )
  (key_scalar_mlp2): RegularMLP(
    (blocks): ModuleList(
      (0): StandardFFNLayer(
        (norm): RMSNorm((1024,), eps=1e-06, elementwise_affine=True)
        (w1): Linear(in_features=1024, out_features=1024, bias=False)
        (w2): Linear(in_features=1024, out_features=1024, bias=False)
        (drop): Dropout(p=0.1, inplace=False)
        (act): GELU(approximate='none')
      )
    )
  )
  (value_scalar_mlp2): RegularMLP(
    (blocks): ModuleList(
      (0): StandardFFNLayer(
        (norm): RMSNorm((1024,), eps=1e-06, elementwise_affine=True)
        (w1): Linear(in_features=1024, out_features=1024, bias=False)
        (w2): Linear(in_features=1024, out_features=1024, bias=False)
        (drop): Dropout(p=0.1, inplace=False)
        (act): GELU(approximate='none')
      )
    )
  )
  (key_scalar_head): Linear(in_features=1024, out_features=8, bias=True)
  (value_scalar_head): Linear(in_features=1024, out_features=8, bias=True)
  (key_proj_mlp2): RegularMLP(
    (blocks): ModuleList(
      (0): StandardFFNLayer(
        (norm): RMSNorm((1024,), eps=1e-06, elementwise_affine=True)
        (w1): Linear(in_features=1024, out_features=1024, bias=False)
        (w2): Linear(in_features=1024, out_features=1024, bias=False)
        (drop): Dropout(p=0.1, inplace=False)
        (act): GELU(approximate='none')
      )
    )
  )
  (value_proj_mlp2): RegularMLP(
    (blocks): ModuleList(
      (0): StandardFFNLayer(
        (norm): RMSNorm((1024,), eps=1e-06, elementwise_affine=True)
        (w1): Linear(in_features=1024, out_features=1024, bias=False)
        (w2): Linear(in_features=1024, out_features=1024, bias=False)
        (drop): Dropout(p=0.1, inplace=False)
        (act): GELU(approximate='none')
      )
    )
  )
  (key_proj_out): Linear(in_features=1024, out_features=1024, bias=True)
  (value_proj_out): Linear(in_features=1024, out_features=1024, bias=True)
), C2CProjector(
  (key_in): Linear(in_features=1152, out_features=1024, bias=True)
  (value_in): Linear(in_features=1152, out_features=1024, bias=True)
  (key_mlp1): RegularMLP(
    (blocks): ModuleList(
      (0): StandardFFNLayer(
        (norm): RMSNorm((1024,), eps=1e-06, elementwise_affine=True)
        (w1): Linear(in_features=1024, out_features=1024, bias=False)
        (w2): Linear(in_features=1024, out_features=1024, bias=False)
        (drop): Dropout(p=0.1, inplace=False)
        (act): GELU(approximate='none')
      )
    )
  )
  (value_mlp1): RegularMLP(
    (blocks): ModuleList(
      (0): StandardFFNLayer(
        (norm): RMSNorm((1024,), eps=1e-06, elementwise_affine=True)
        (w1): Linear(in_features=1024, out_features=1024, bias=False)
        (w2): Linear(in_features=1024, out_features=1024, bias=False)
        (drop): Dropout(p=0.1, inplace=False)
        (act): GELU(approximate='none')
      )
    )
  )
  (key_scalar_mlp2): RegularMLP(
    (blocks): ModuleList(
      (0): StandardFFNLayer(
        (norm): RMSNorm((1024,), eps=1e-06, elementwise_affine=True)
        (w1): Linear(in_features=1024, out_features=1024, bias=False)
        (w2): Linear(in_features=1024, out_features=1024, bias=False)
        (drop): Dropout(p=0.1, inplace=False)
        (act): GELU(approximate='none')
      )
    )
  )
  (value_scalar_mlp2): RegularMLP(
    (blocks): ModuleList(
      (0): StandardFFNLayer(
        (norm): RMSNorm((1024,), eps=1e-06, elementwise_affine=True)
        (w1): Linear(in_features=1024, out_features=1024, bias=False)
        (w2): Linear(in_features=1024, out_features=1024, bias=False)
        (drop): Dropout(p=0.1, inplace=False)
        (act): GELU(approximate='none')
      )
    )
  )
  (key_scalar_head): Linear(in_features=1024, out_features=8, bias=True)
  (value_scalar_head): Linear(in_features=1024, out_features=8, bias=True)
  (key_proj_mlp2): RegularMLP(
    (blocks): ModuleList(
      (0): StandardFFNLayer(
        (norm): RMSNorm((1024,), eps=1e-06, elementwise_affine=True)
        (w1): Linear(in_features=1024, out_features=1024, bias=False)
        (w2): Linear(in_features=1024, out_features=1024, bias=False)
        (drop): Dropout(p=0.1, inplace=False)
        (act): GELU(approximate='none')
      )
    )
  )
  (value_proj_mlp2): RegularMLP(
    (blocks): ModuleList(
      (0): StandardFFNLayer(
        (norm): RMSNorm((1024,), eps=1e-06, elementwise_affine=True)
        (w1): Linear(in_features=1024, out_features=1024, bias=False)
        (w2): Linear(in_features=1024, out_features=1024, bias=False)
        (drop): Dropout(p=0.1, inplace=False)
        (act): GELU(approximate='none')
      )
    )
  )
  (key_proj_out): Linear(in_features=1024, out_features=1024, bias=True)
  (value_proj_out): Linear(in_features=1024, out_features=1024, bias=True)
), C2CProjector(
  (key_in): Linear(in_features=1152, out_features=1024, bias=True)
  (value_in): Linear(in_features=1152, out_features=1024, bias=True)
  (key_mlp1): RegularMLP(
    (blocks): ModuleList(
      (0): StandardFFNLayer(
        (norm): RMSNorm((1024,), eps=1e-06, elementwise_affine=True)
        (w1): Linear(in_features=1024, out_features=1024, bias=False)
        (w2): Linear(in_features=1024, out_features=1024, bias=False)
        (drop): Dropout(p=0.1, inplace=False)
        (act): GELU(approximate='none')
      )
    )
  )
  (value_mlp1): RegularMLP(
    (blocks): ModuleList(
      (0): StandardFFNLayer(
        (norm): RMSNorm((1024,), eps=1e-06, elementwise_affine=True)
        (w1): Linear(in_features=1024, out_features=1024, bias=False)
        (w2): Linear(in_features=1024, out_features=1024, bias=False)
        (drop): Dropout(p=0.1, inplace=False)
        (act): GELU(approximate='none')
      )
    )
  )
  (key_scalar_mlp2): RegularMLP(
    (blocks): ModuleList(
      (0): StandardFFNLayer(
        (norm): RMSNorm((1024,), eps=1e-06, elementwise_affine=True)
        (w1): Linear(in_features=1024, out_features=1024, bias=False)
        (w2): Linear(in_features=1024, out_features=1024, bias=False)
        (drop): Dropout(p=0.1, inplace=False)
        (act): GELU(approximate='none')
      )
    )
  )
  (value_scalar_mlp2): RegularMLP(
    (blocks): ModuleList(
      (0): StandardFFNLayer(
        (norm): RMSNorm((1024,), eps=1e-06, elementwise_affine=True)
        (w1): Linear(in_features=1024, out_features=1024, bias=False)
        (w2): Linear(in_features=1024, out_features=1024, bias=False)
        (drop): Dropout(p=0.1, inplace=False)
        (act): GELU(approximate='none')
      )
    )
  )
  (key_scalar_head): Linear(in_features=1024, out_features=8, bias=True)
  (value_scalar_head): Linear(in_features=1024, out_features=8, bias=True)
  (key_proj_mlp2): RegularMLP(
    (blocks): ModuleList(
      (0): StandardFFNLayer(
        (norm): RMSNorm((1024,), eps=1e-06, elementwise_affine=True)
        (w1): Linear(in_features=1024, out_features=1024, bias=False)
        (w2): Linear(in_features=1024, out_features=1024, bias=False)
        (drop): Dropout(p=0.1, inplace=False)
        (act): GELU(approximate='none')
      )
    )
  )
  (value_proj_mlp2): RegularMLP(
    (blocks): ModuleList(
      (0): StandardFFNLayer(
        (norm): RMSNorm((1024,), eps=1e-06, elementwise_affine=True)
        (w1): Linear(in_features=1024, out_features=1024, bias=False)
        (w2): Linear(in_features=1024, out_features=1024, bias=False)
        (drop): Dropout(p=0.1, inplace=False)
        (act): GELU(approximate='none')
      )
    )
  )
  (key_proj_out): Linear(in_features=1024, out_features=1024, bias=True)
  (value_proj_out): Linear(in_features=1024, out_features=1024, bias=True)
), C2CProjector(
  (key_in): Linear(in_features=1152, out_features=1024, bias=True)
  (value_in): Linear(in_features=1152, out_features=1024, bias=True)
  (key_mlp1): RegularMLP(
    (blocks): ModuleList(
      (0): StandardFFNLayer(
        (norm): RMSNorm((1024,), eps=1e-06, elementwise_affine=True)
        (w1): Linear(in_features=1024, out_features=1024, bias=False)
        (w2): Linear(in_features=1024, out_features=1024, bias=False)
        (drop): Dropout(p=0.1, inplace=False)
        (act): GELU(approximate='none')
      )
    )
  )
  (value_mlp1): RegularMLP(
    (blocks): ModuleList(
      (0): StandardFFNLayer(
        (norm): RMSNorm((1024,), eps=1e-06, elementwise_affine=True)
        (w1): Linear(in_features=1024, out_features=1024, bias=False)
        (w2): Linear(in_features=1024, out_features=1024, bias=False)
        (drop): Dropout(p=0.1, inplace=False)
        (act): GELU(approximate='none')
      )
    )
  )
  (key_scalar_mlp2): RegularMLP(
    (blocks): ModuleList(
      (0): StandardFFNLayer(
        (norm): RMSNorm((1024,), eps=1e-06, elementwise_affine=True)
        (w1): Linear(in_features=1024, out_features=1024, bias=False)
        (w2): Linear(in_features=1024, out_features=1024, bias=False)
        (drop): Dropout(p=0.1, inplace=False)
        (act): GELU(approximate='none')
      )
    )
  )
  (value_scalar_mlp2): RegularMLP(
    (blocks): ModuleList(
      (0): StandardFFNLayer(
        (norm): RMSNorm((1024,), eps=1e-06, elementwise_affine=True)
        (w1): Linear(in_features=1024, out_features=1024, bias=False)
        (w2): Linear(in_features=1024, out_features=1024, bias=False)
        (drop): Dropout(p=0.1, inplace=False)
        (act): GELU(approximate='none')
      )
    )
  )
  (key_scalar_head): Linear(in_features=1024, out_features=8, bias=True)
  (value_scalar_head): Linear(in_features=1024, out_features=8, bias=True)
  (key_proj_mlp2): RegularMLP(
    (blocks): ModuleList(
      (0): StandardFFNLayer(
        (norm): RMSNorm((1024,), eps=1e-06, elementwise_affine=True)
        (w1): Linear(in_features=1024, out_features=1024, bias=False)
        (w2): Linear(in_features=1024, out_features=1024, bias=False)
        (drop): Dropout(p=0.1, inplace=False)
        (act): GELU(approximate='none')
      )
    )
  )
  (value_proj_mlp2): RegularMLP(
    (blocks): ModuleList(
      (0): StandardFFNLayer(
        (norm): RMSNorm((1024,), eps=1e-06, elementwise_affine=True)
        (w1): Linear(in_features=1024, out_features=1024, bias=False)
        (w2): Linear(in_features=1024, out_features=1024, bias=False)
        (drop): Dropout(p=0.1, inplace=False)
        (act): GELU(approximate='none')
      )
    )
  )
  (key_proj_out): Linear(in_features=1024, out_features=1024, bias=True)
  (value_proj_out): Linear(in_features=1024, out_features=1024, bias=True)
)]
2025-12-19 20:31:51,211 - script.playground.inference_example - INFO - Loading aggregators...[]
2025-12-19 20:31:51,248 - script.playground.inference_example - INFO - Rosetta model loaded successfully:RosettaModel(
  models=2,
    [0] Qwen3ForCausalLM (base)
    [1] Qwen2ForCausalLM
  projectors=28 (mappings=0),
  aggregators=0,
  fusion_mode='parallel',
…
